hw1/model.npy (npy, 2680 bytes, 1 tensors)

array f8 [325]
0	0xbf7ffa6fdc79f6af	-0.0078071946696788705
1	0x3f6082508d3b73b5	0.0020152638697780952
2	0x3f5176d3979042ef	0.0010659281090321068
3	0x3f6cef3d309cf77a	0.0035320468058718775
4	0x3f62f6dcf07617ad	0.0023149790974370172
5	0x3f76995c47fbe719	0.005517349694622608
6	0x3f7a4f1d3306d22d	0.006423105296950155
7	0x3f6f7cb8d07696db	0.0038436517385943398
8	0x3f626692d243b544	0.0022461764912039845
9	0x3f818ffa1d9d449f	0.008575395611531809
10	0xbf8d27162747147c	-0.01423470790258307
11	0xbf81ba31d5924658	-0.008655919389897779
12	0xbf7a6e8454bc1a57	-0.006453053396177375
13	0xbf83b90d1efe9d64	-0.009630301006679338
14	0xbf757fab9d60560a	-0.005248709077951394
15	0x3f69746db1e8206a	0.0031072752456147617
16	0x3f6ad6db6f4a382d	0.0032762800058838888
17	0x3f80226a8984e52c	0.007878143617392107
18	0x3f98dbdfc8f0381b	0.0242762533562698
19	0x3f9a9eda3b0d12c5	0.02599659905833353
20	0x3fb3f85d8083ab03	0.07800850284153786
21	0x3fa056d96f314613	0.03191260797815345
22	0x3fa81b0526ff47ac	0.04708114720382581
23	0x3f9c49a5c16feb11	0.027624692851513425
24	0x3f9b4d2676a4f532	0.02666149233958954
25	0x3fa2aac4516a9575	0.036459097803610264
26	0x3fbe4177a829b368	0.11818645339526557
27	0x3fd0ecb6d207d2fd	0.26444788466260133
28	0xbfa8f7dd4e18aa19	-0.048766055854077624
29	0xbf9b715972ab176e	-0.02679958116893693
30	0xbfa1219183c10547	-0.03345923169446024
31	0x3f90a58be156094b	0.016256509426520165
32	0x3fa466460f2a4ea8	0.039842786170223576
33	0x3f4a4c91c363b260	0.0008025848135538409
34	0x3fa071f46f677e3c	0.032119406317857785
35	0x3fad980ec69e92f8	0.0578007333236083
36	0x3fbef8ebb3990693	0.12098572859488348
37	0xbfa196ab0c0e2e3d	-0.034352631780248256
38	0xbf8994b5d01a0ab3	-0.012490673459301637
39	0x3f61d9840b044a89	0.0021789149251472723
40	0xbf7d633fadcf998b	-0.0071747291048950375
41	0xbfa5da58498f016a	-0.042681464175532494
42	0xbf8771efc0d0057f	-0.011447785445855228
43	0x3f8c9033b84dace6	0.013946918546670916
44	0xbfa5ea2a3bebe775	-0.04280216199363355
45	0xbfac783fe38c3b61	-0.05560493138010859
46	0xbf80fe557ae75c0c	-0.008297603429054966
47	0xbf370f7721e7a00e	-0.0003518739557919489
48	0x3f76662309d25ecc	0.005468499058359288
49	0x3f5ad5d532e1fe8c	0.0016378957766675388
50	0xbf6fd80376d75281	-0.0038871829662901485
51	0xbf878dae20c669df	-0.011500702262130012
52	0x3f79af45eb2e0f24	0.0062706690977199254
53	0x3fa37ebfc3bc8228	0.03807639374122501
54	0x3fb58215b28ccec6	0.08401618584758372
55	0xbf883a537a1e7302	-0.011829998173021664
56	0xbf586b34a73419f9	-0.0014904035750206142
57	0x3f78ad81f1d4cad7	0.006024844738294197
58	0x3f7b096b1c883b0a	0.006600778965107032
59	0xbf79a8ba8107db46	-0.006264427691795421
60	0xbf86c78b5f95a45b	-0.01112278829050888
61	0x3f7c771a99fcb29c	0.0069495238420073345
62	0x3f9db0ea49eba137	0.02899519039320461
63	0x3fafda48dd097550	0.06221225450711165
64	0x3f73105ddc29e08b	0.004654280319862046
65	0xbf86988d46921427	-0.011033157077927026
66	0xbf8bd56d41fcb2bd	-0.013590673042551566
67	0xbf8cd3c05b0db804	-0.014075758723006267
68	0xbf82d399ad7c1cf1	-0.009192658049427456
69	0xbf6169831b2416a3	-0.0021255074181024277
70	0xbf87cf1b40a06beb	-0.011625492963551273
71	0x3f98abcad92bfcb3	0.02409283590804696
72	0x3fb4ca60a81a3d61	0.0812130365759365
73	0xbf727a7acb101bbf	-0.004511336956972422
74	0xbf75e80528c435db	-0.00534822478608762
75	0xbf513abcc4fc1c2d	-0.001051601739108464
76	0x3f83d4625883c114	0.009682434393170548
77	0x3f73cf953192fd9b	0.004836638248149862
78	0xbf85ff05cfb9e4d3	-0.01074032344989676
79	0xbf740bdad373b772	-0.004894118107797373
80	0x3f9fb59a55ac6bca	0.030966197470757163
81	0x3fb1da5ef6c65876	0.06973832630896645
82	0x3f9544d77439c004	0.020770422428938687
83	0x3f6a797561e7c169	0.0032317440629798144
84	0x3f938e12550b8ea2	0.01909664768289921
85	0xbf7ad68494836659	-0.006552236453183002
86	0x3f9a2c988cd72ada	0.025560744854184893
87	0x3faa96610b102f9a	0.05192855129288816
88	0xbfa91a1364d77800	-0.04902706724145389
89	0x3fc43e059ce2f007	0.15814275894615568
90	0x3fddd7ad25ca4158	0.46628884020267014
91	0xbfb3eec5ba5c2e0b	-0.07786212730223256
92	0xbfb83bd7fb9e9452	-0.09466314213803287
93	0xbfb53427833254b6	-0.08282706215898625
94	0x3fa95f5548c9a009	0.04955545915146337
95	0xbfb29efacae63912	-0.0727383370742454
96	0x3fa4ae778c9e0f9b	0.040393577494824494
97	0xbf89c7df114832b3	-0.012588255610375887
98	0xbfc39b5027dc2532	-0.15317727991377122
99	0xbfcbf5ec7b705cb7	-0.21844249751368292
100	0xbf50608176007a9c	-0.0009995712534941808
101	0xbf62fee764a92c14	-0.00231881326661699
102	0xbf721a017a4f801d	-0.004419332287369596
103	0xbf7c8f0f1c63d845	-0.006972369219729717
104	0xbf75b677e187315e	-0.005300968441997204
105	0xbf6537ee91e5d547	-0.002590146977292793
106	0xbf697595157aa16c	-0.003107825450417481
107	0xbf527a0097bd9aed	-0.0011277204311796421
108	0x3f226733d982ef87	0.00014040477686260938
109	0xbf9afb244d6022b2	-0.026348654959323432
110	0x3fa0e350e63b41d1	0.03298428354685579
111	0xbf853723785b9ed1	-0.010359074698001266
112	0xbf9219aa7a10c515	-0.017676032734191233
113	0xbf88d2ea633961eb	-0.012121039536553154
114	0x3f4146cdc500e28c	0.0005272392973046532
115	0xbf56f1ee838fe6e5	-0.0014004544484564282
116	0x3fa635782f612a97	0.04337668970454905
117	0x3fbd125ac4a82194	0.11356131840887534
118	0xbf8f5657bf5f00e5	-0.015301404502566071
119	0xbf8c6fd02bdb542e	-0.013885141695405858
120	0xbf8807cbc4ba1128	-0.011733619633795003
121	0xbf8825e92d0fa63a	-0.011791059196144638
122	0xbf5431ba853efc55	-0.0012325593461211166
123	0x3f75d47a0c2fa722	0.005329586742826272
124	0x3f7215f43ba32604	0.004415468249314273
125	0x3f79e1a00e43205b	0.006318688600181667
126	0x3f9c5453e2c1ccc1	0.027665434565687933
127	0xbf7587367cf862fb	-0.005255902141947595
128	0x3f8177d5fedbe8d7	0.008529350128345587
129	0x3f693146fcfec087	0.003075255059194207
130	0xbf7063ff801e24a3	-0.004001615570708913
131	0xbf79cab8b236283f	-0.006296845883648371
132	0x3f654c85ed4db9d0	0.0025999656449393407
133	0x3f6884de0fda32ea	0.0029930436274468912
134	0xbf309615a94ee863	-0.0002530863651447666
135	0x3f7c1a407a1d2aeb	0.006860973227797311
136	0x3f523cd260288d89	0.0011131338548090194
137	0xbf6faba9f8c80766	-0.003866035438705606
138	0x3f70657964e1b81d	0.004003023334105319
139	0xbf52104016e5e8a7	-0.0011025071977131347
140	0x3f5f673dd9b12261	0.0019167045600331433
141	0xbf4ff600ca7b2524	-0.0009753707754153501
142	0x3f82eb808ef2aa5e	0.009238247263359142
143	0x3f8035d8447859dc	0.007915200795690795
144	0x3f843f608d750f29	0.009886507336552679
145	0xbf96d1a07f293a2a	-0.022284038316053557
146	0xbf926b5ea7f4f5c7	-0.01798770809295094
147	0x3f87b767ebc8e868	0.011580287821846905
148	0xbf87c4d98cf8ed1b	-0.011605929960856678
149	0xbf8f72ad802699b7	-0.015355449174262554
150	0xbf942cfadcff93e9	-0.01970283483378302
151	0xbf971bf1c8866309	-0.02256753717810781
152	0xbfa38ffc2b3fb614	-0.03820789363804181
153	0xbfa1cb666729a776	-0.034754943936447555
154	0xbf7f8e5998de08f9	-0.007704114903278597
155	0x3f7dc6d8fd44d0d8	0.007269713987899183
156	0xbf5b5c39cf816222	-0.0016699375683143576
157	0xbf809f456af5653e	-0.00811628563558264
158	0xbf767f3577fc051b	-0.005492409574573
159	0x3f8a9f59f001266e	0.012999251019340376
160	0xbfa0af1ec58df6f9	-0.03258606111101687
161	0xbfb0335a4df32408	-0.06328358080931207
162	0xbf985c9b4ef303b2	-0.023790766423875183
163	0x3f2214c409089e0c	0.00013794796952136567
164	0xbf6241ac1152918e	-0.0022285805412868903
165	0x3f5ca45c37ff899a	0.0017481709073697616
166	0xbf5da64e54882ea1	-0.0018096699660671638
167	0x3f5b659438ae9335	0.0016721675371879745
168	0x3f512e434abd0160	0.0010486275813975307
169	0xbf72eedfae54d50f	-0.00462233901389665
170	0xbf7b39bc2ea58377	-0.006646857344407723
171	0x3f81f0bba287685f	0.008759942910661232
172	0xbf90e55deaa75d18	-0.016499965140465894
173	0xbf80b031f9c30574	-0.008148565706849388
174	0xbf6d1b304814eaea	-0.0035530035972021106
175	0xbf7d158aeefca8ea	-0.007100622853423591
176	0xbf538bdca8c7c7a1	-0.001193013656231014
177	0x3f7ce2fb3025dfb8	0.0070524036440175394
178	0x3f827c0be52a2bfd	0.009025662356426873
179	0x3f96226fc7a54570	0.021615740356826618
180	0x3fa8066a54f7b19f	0.04692394530488574
181	0xbfa1abf18495375d	-0.034514949259217366
182	0xbfb6d0fb4b26e6ca	-0.08912630638851762
183	0x3fa22c33c8332163	0.03549348658413256
184	0xbfac6eb5e646e353	-0.05553215442654982
185	0x3fb97f10e222a02b	0.09959512253647122
186	0xbf85c24445562ca3	-0.010624440542207408
187	0xbfab2035960e8f47	-0.052980112617005796
188	0x3f79575c5f7e6602	0.00618682940685167
189	0x3fb0d61053ff1c11	0.06576635409065569
190	0xbfa71e6b9c2bf911	-0.045153963865219755
191	0xbfb8a28cc486a201	-0.09623031423564755
192	0xbfc3c2dcc5164b48	-0.15438422797577744
193	0x3fbc7a7787a52256	0.11124369680067878
194	0x3fc946aa4376b15c	0.19746902746318085
195	0xbfb535f8411e8f62	-0.08285476293400287
196	0xbfa44d5aec67c279	-0.039652673109121524
197	0xbfbf3b89c3d46e49	-0.12200222998620193
198	0xbf8319905fb75c55	-0.009326103135135858
199	0x3f7ca46275e46bc5	0.006992706881898185
200	0x3f5540674143a5de	0.0012970932339676426
201	0x3f8222758eef12a9	0.008854788231368831
202	0xbf928c3dba09a474	-0.01811310241683768
203	0x3f8c46fb9b8e06e0	0.013807264027267008
204	0xbf846a6d9b22cc0f	-0.009968620583412883
205	0xbf8cef45c084b307	-0.01412825101632499
206	0xbf7e916391ac9c70	-0.007462872449457966
207	0x3f8cbb569f880731	0.014029194587240919
208	0x3f6e82875b4905a9	0.0037243503268491085
209	0xbf5e8c7319d25c34	-0.0018645404846091675
210	0x3f4a0ddeb87c8811	0.0007951104643988423
211	0xbf7f44f2c7a4ec02	-0.007634113653973708
212	0x3f73a1486d991a4f	0.00479248325570454
213	0xbf563f73783cb7da	-0.0013579013474997932
214	0xbf7cbdc8b83159de	-0.007016929684218158
215	0xbf8324f3126a5fe8	-0.009347819327828646
216	0x3f819cfb12cab369	0.008600198279361941
217	0xbf5adc4e3e51550d	-0.0016394390197736503
218	0xbf1aa6b75a2b21e0	-0.00010166639416831586
219	0xbf58fc25a5562a39	-0.001524960292359835
220	0x3f74474ad76577e9	0.004950802182376515
221	0xbf69b18082831aca	-0.0031363973576817627
222	0x3f5db2922de58507	0.0018125941783966885
223	0x3f711bc127a3d944	0.004176859389408986
224	0x3f753ec180f815f9	0.005186801790391987
225	0xbf71f242108f7c1e	-0.004381425919716823
226	0xbf164ef92d621a82	-8.510013444338642e-05
227	0x3f207a91e56add28	0.0001257231803799355
228	0x3f12abc59f3f3783	7.122415246316013e-05
229	0xbf01297191567f4c	-3.2733705818131954e-05
230	0x3f01d8ec37ce3897	3.4041127015092456e-05
231	0xbf235fd7d1603981	-0.00014781484122789945
232	0x3ef7e4d79b2e9ea3	2.2787012948248736e-05
233	0xbf24a8ba0c991b6e	-0.00015761633976493376
234	0xbf1a7e9e93d23bb9	-0.0001010689056377541
235	0x3f18dd5af3606430	9.48511850257384e-05
236	0x3ee3b3a13b6e8907	9.394492605900336e-06
237	0x3eef93c458cde46f	1.5057189352895275e-05
238	0x3f24076cebf283ac	0.00015280918703289065
239	0xbf3a281034d35c3f	-0.00039911647475094134
240	0x3f1b8e2c3d52e0d8	0.00010511536614188648
241	0x3f34cf47e0159cfd	0.0003175306774978041
242	0xbf41850e3b349b6b	-0.000534660290587447
243	0xbf0d529031ba47e5	-5.592825456547638e-05
244	0xbf499f382d07766c	-0.0007819198891032115
245	0x3f248f3e2cdeb666	0.000156856860880894
246	0x3f5a4883271931a9	0.0016042023456917887
247	0xbf614384b86f2701	-0.002107390613194649
248	0x3f03249231752fa7	3.651209970686959e-05
249	0x3f7131fc0d0392bb	0.004198059629037128
250	0xbf7846a156fc6ed4	-0.00592673323970035
251	0xbf510cd4f3d57307	-0.0010406570066471847
252	0x3f7703bcd1137f04	0.00561879879498384
253	0x3f61728889e26e4e	0.0021298090715171974
254	0x3f5a75842976bb57	0.0016149321216791435
255	0x3f476e21adaa6973	0.0007150330014440834
